components/modeler/mlp_model.pth (torch, 140647 bytes, 6 tensors)

0.weight f4 [128, 72]
-0.054681234 -0.09283962 -0.035427667 -0.091166474 -0.046169974 0.0837636 -0.06323919 0.037399303
0.007709778 0.101317964 -0.07451407 -0.021832211 -0.06735517 0.05586665 -0.043577146 -0.044033114
0.07786648 0.0022190462 -0.032177806 -0.056771092 -0.035178345 0.0022822241 -0.065142475 0.024526743
-0.05171572 -0.07304923 -0.045960326 0.05011996 0.0662915 0.06835509 -0.04048088 -0.10844187
0.08416207 -0.09119477 -0.09962833 0.03393679 0.058146704 -0.027204312 -0.10250201 0.101499975
0.066752106 0.077961005 -0.07131801 -0.10588863 -0.07382337 -0.111919016 -0.00017995642 -0.01724504
-0.0024063797 -0.026125543 0.0800839 0.11158343 -0.049358632 0.07851127 0.06777556 0.059987187
-0.06637612 -0.0999541 0.07375534 0.09036755 -0.044142965 0.041659765 0.11043555 0.025528194
0.039655194 0.06795806 -0.07222451 -0.07094669 0.06241913 -0.10705525 -0.065445855 0.038052313
-0.017830947 0.054420322 0.053244226 -0.07430646 0.09977557 -0.11209728 0.08825036 -0.049307328
0.04334653 -0.025776522 0.04607783 0.08867028 0.019183876 0.108956665 -0.08928502 -0.09191092
-0.047098752 -0.008987257 0.056683652 -0.068006165 0.013885864 0.064300425 -0.074165076 0.111663215
0.009480697 0.096145526 -0.036559764 0.0052815354 0.012875852 0.013060275 -0.08184482 -0.025771989
-0.032039434 0.029174339 -0.07154702 -0.08786068 -0.0022387756 0.054360088 0.058518585 0.009067786
0.11115805 -0.05306949 0.004500733 -0.09006954 -0.05619633 -0.09950733 -0.10532392 0.10006617
0.12006732 -0.09408449 0.013818006 -0.04257542 -0.059391517 -0.0718877 -0.10213445 0.11395371
0.05447097 0.108404964 -0.01646516 0.011189823 -0.037820484 -0.07382599 0.032383114 0.07283987
0.07306004 -0.07383795 -0.030579973 -0.06267664 -0.108900174 -0.111340456 -0.04415182 -0.10051199
0.10402538 -0.04136804 0.0664002 -0.024937095 9.072067e-05 -0.1017271 0.022122674 0.021935556
-0.0013641724 -0.06744951 0.05526285 -0.11897895 -0.11935928 0.0033850016 0.07775323 -0.09608157
-0.028012816 0.06345676 0.0402069 0.10478176 0.06845355 -0.07881973 0.040222958 0.119645335
-0.015457888 0.10994693 0.082895726 0.0063765515 -0.047390677 -0.015182219 -0.06646264 0.080523394
-0.09330627 0.108176395 -0.055455472 -0.02548852 -0.015190546 -0.0077919825 0.10039087 0.10790376
-0.055796996 0.02202342 -0.027441831 0.021760356 -0.01192243 -0.013858852 -0.017173752 0.09351721
0.0237207 0.018863298 -0.030345926 -0.03304744 -0.006464077 0.010842265 0.049708705 -0.07317266
-0.090537295 -0.005133095 -0.11676529 -0.030192483 0.111792326 -0.101542965 -0.1012589 0.042228617
0.09735715 -0.06696811 -0.10754989 -0.0551693 -0.084127545 0.066379644 0.012566945 -0.060424153
0.121353224 0.11557359 0.020219134 0.04700778 0.09617205 0.11294081 -0.078336716 -0.05451033
0.10766517 -0.001008566 0.100024946 0.014150897 0.015347952 -0.06802637 0.030284733 -0.060997363
0.09987638 0.05265931 -0.08238937 0.118094556 -0.051083833 0.055632778 -0.09197314 -0.0013055742
-0.007826579 -0.024423875 -0.045366846 0.026243212 0.100545876 -0.067868754 0.056242622 -0.009196168
0.028422948 -0.061789118 -0.11696373 0.028875912 -0.025875265 -0.055596747 -0.11740296 -0.044910792
00000000: 6ef9 5fbd b322 bebd 9a1c 11bd 7db5 babd
00000010: ba1c 3dbd 408c ab3d 8c83 81bd 0330 193d
00000020: 4ea2 fc3b cb7f cf3d d59a 98bd 77d9 b2bc
00000030: 82f1 89bd 6ed4 643d f37d 32bd 115c 34bd
00000040: 7678 9f3d 6b6d 113b e0cc 03bd ce88 68bd
00000050: 2b17 10bd 5e91 153b 6b69 85bd 4fec c83c
00000060: ddd3 53bd d69a 95bd e540 3cbd 964a 4d3d
00000070: d7c3 873d c1fd 8b3d 47cf 25bd c516 debd
00000080: 2a5d ac3d 53c4 babd f009 ccbd 4e01 0b3d
00000090: 3d2b 6e3d 94db debc 93ec d1bd 38df cf3d
000000a0: 54b5 883d 05aa 9f3d 2d0f 92bd 23dc d8bd
000000b0: b530 97bd cc35 e5bd afb2 3cb9 7845 8dbc
000000c0: 5ab4 1dbb 3c05 d6bc 0703 a43d da85 e43d
000000d0: 472c 4abd 84ca a03d eacd 8a3d 20b5 753d
000000e0: 34f0 87bd bcb4 ccbd 0a0d 973d 9f12 b93d
000000f0: 41cf 34bd 6ea3 2a3d 092c e23d 8120 d13c
00000100: 7c6d 223d 982d 8b3d 72ea 93bd 804c 91bd
00000110: 34ab 7f3d c83f dbbd 7a08 86bd bedc 1b3d
00000120: 3512 92bc d8e7 5e3d 9e16 5a3d fc2d 98bd
00000130: 2257 cc3d 4293 e5bd 9bbc b43d 7bf6 49bd
00000140: 228c 313d 4929 d3bc 1bbc 3c3d c498 b53d
00000150: 8127 9d3c ac24 df3d 11db b6bd cb3b bcbd
00000160: 9fea 40bd 4a3f 13bc 1e2d 683d d146 8bbd
00000170: 8981 633c f1af 833d dce3 97bd afaf e43d
00000180: ed54 1b3c f2e7 c43d b1bf 15bd bb10 ad3b
00000190: 3df5 523c c4fa 553c 429e a7bd c71f d3bc
000001a0: c83b 03bd 06ff ee3c 3e87 92bd 4df0 b3bd
000001b0: 6cb8 12bb afa8 5e3d 2fb1 6f3d 0d91 143c
000001c0: d5a6 e33d 655f 59bd e37a 933b 6176 b8bd
000001d0: 1f2e 66bd 80ca cbbd 11b4 d7bd 7eef cc3d
000001e0: dbe5 f53d 5eaf c0bd eb64 623c 9063 2ebd
000001f0: 8544 73bd dc39 93bd de2b d1bd 9060 e93d
00000200: f41c 5f3d 6c03 de3d f1e1 86bc 8555 373c
00000210: a7e9 1abd 1532 97bd 28a4 043d 122d 953d
00000220: 81a0 953d 5a38 97bd da82 fabc 9c5c 80bd
00000230: 0e07 dfbd 7706 e4bd 8ad8 34bd 3bd9 cdbd
00000240: 420b d53d 8971 29bd d4fc 873d e148 ccbc
00000250: 4a41 be38 4c56 d0bd 9c3a b53c 32b2 b33c
00000260: 08ce b2ba f822 8abd 4c5b 623d 3cab f3bd
00000270: a372 f4bd e7d6 5d3b 163d 9f3d 6ac6 c4bd
00000280: 227b e5bc 9ef5 813d feaf 243d d297 d63d
00000290: 6031 8c3d 3d6c a1bd d4c0 243d 9d08 f53d
000002a0: 1543 7dbc db2b e13d 3cc5 a93d 64f2 d03b
000002b0: ba1c 42bd d8be 78bc 911d 88bd 73e9 a43d
000002c0: 5c17 bfbd 968b dd3d 4725 63bd 4dcd d0bc
000002d0: c5e1 78bc e353 ffbb ba99 cd3d a6fc dc3d
000002e0: 648b 64bd 766a b43c b1cd e0bc c642 b23c
000002f0: 4c56 43bc 3d10 63bc f8af 8cbc f385 bf3d
00000300: ea51 c23c 3487 9a3c 0598 f8bc c15c 07bd
00000310: 9cd0 d3bb c1a3 313c 5b9b 4b3d 8cdb 95bd
00000320: 9e6b b9bd 8633 a8bb a422 efbd 3a56 f7bc
00000330: 60f3 e43d c2f5 cfbd d360 cfbd eaf7 2c3d
00000340: 2f63 c73d 9426 89bd 1e43 dcbd 34f9 61bd
00000350: 104b acbd 0df2 873d 96e5 4d3c 517f 77bd
00000360: 0a88 f83d d9b1 ec3d 99a2 a53c 3b8b 403d
00000370: daf5 c43d 834d e73d 006f a0bd 3946 5fbd
00000380: 8f7f dc3d dc31 84ba e1d9 cc3d 2ad9 673c
00000390: fa75 7b3c 6951 8bbd b017 f83c 5fd8 79bd
000003a0: fd8b cc3d 4ab1 573d c2bb a8bd 8fdb f13d
000003b0: 483d 51bd 32df 633d 6a5c bcbd cd1f abba
000003c0: 0d3b 00bc 9414 c8bc 96d2 39bd 01fc d63c
000003d0: ffea cd3d c6fe 8abd aa5e 663d 86ab 16bc
000003e0: 3ed7 e83c 9616 7dbd ae8a efbd 2d8d ec3c
000003f0: 5df8 d3bc 6ab9 63bd f770 f0bd 61f4 37bd

0.bias f4 [128]
0.017024014 0.06104702 -0.088431925 0.021659547 0.038083375 -0.07917137 0.012639557 -0.11644447
0.0047697043 0.096014634 -0.0014201769 -0.027633766 0.096372515 -0.092341244 0.120402664 0.049833838
0.07539576 -0.044487122 -0.033521045 0.04290717 -0.019473642 -0.08624919 -0.018814323 0.10132936
0.04816835 -0.020080313 0.056913245 -0.04488239 0.020799916 -0.079334326 0.113967426 0.060781997
0.0029306633 0.06933788 0.075569995 -0.10183965 -0.012524348 -0.018543376 0.011756817 0.0552769
0.07282743 -0.0106247235 -0.004398136 0.07793421 -0.112804845 0.04152404 -0.06606853 -0.039612792
-0.09388455 0.014442889 -0.042507295 0.105366684 0.032922357 -0.10737763 -0.07464335 0.06170948
0.024151104 -0.0886181 -0.06514781 0.058070898 0.060126103 0.10081781 -0.10418764 0.07137843
0.11915747 -0.06966842 0.06326913 0.0850482 0.080138855 -0.10654739 0.05249405 0.094253235
-0.0104564475 -0.08382939 0.039300643 0.025105957 -0.00023106585 -0.006993664 -0.04489942 0.05372719
0.075131275 -0.025981003 -0.11500577 0.026917513 0.10749376 -0.11035729 -0.06716057 -0.10351177
0.034319915 -0.11011755 -0.11042009 -0.096376605 0.00095310004 0.014481191 0.09797396 0.034138408
-0.09191928 -0.078733705 0.06180666 0.067585096 0.097020745 0.036160357 -0.06704042 0.052817166
0.098768756 -0.032298993 -0.043513425 0.026458055 -0.068816 0.03305994 -0.081876256 0.050465032
-0.09003072 0.019696854 -0.0988475 0.01778802 0.088787936 -0.09841182 0.025662063 0.08719532
0.030223913 0.07271352 0.049103808 0.01478851 0.094866484 -0.09884985 -0.00089499523 0.08008503
00000000: f275 8b3c 710c 7a3d cc1b b5bd 5d6f b13c
00000010: 50fd 1b3d 9924 a2bd 2516 4f3c 707a eebd
00000020: 2e4b 9c3b 52a3 c43d 3b25 baba 3560 e2bc
00000030: f45e c53d 681d bdbd ac95 f63d 911e 4c3d
00000040: 1869 9a3d 2138 36bd 5d4d 09bd 6ebf 2f3d
00000050: 3087 9fbc 6aa3 b0bd 7f20 9abc c485 cf3d
00000060: 2d4c 453d 787f a4bc dd1d 693d 99d6 37bd
00000070: 9664 aa3c 097a a2bd c167 e93d 8bf6 783d
00000080: 5f10 403b 0501 8e3d 71c4 9a3d 4e91 d0bd
00000090: ec32 4dbc 47e8 97bc aa9f 403c 086a 623d
000000a0: 8c26 953d 5213 2ebc 3d1e 90bb f99b 9f3d
000000b0: 3a06 e7bd 1d15 2a3d f04e 87bd 0641 22bd
000000c0: 8b46 c0bd dea1 6c3c 211c 2ebd 7dca d73d
000000d0: 98d9 063d cee8 dbbd 9dde 98bd 14c3 7c3d
000000e0: 89d8 c53c 687d b5bd 376c 85bd c0db 6d3d
000000f0: ca46 763d 9179 ce3d 5460 d5bd db2e 923d
00000100: d508 f43d 51ae 8ebd 3f93 813d c02d ae3d
00000110: d71f a43d 8535 dabd 0004 573d d707 c13d
00000120: 8551 2bbc beae abbd b6f9 203d 02ab cd3c
00000130: 444a 72b9 1b2b e5bb 74e8 37bd 0b11 5c3d
00000140: 6dde 993d 1dd6 d4bc 2588 ebbd 1e82 dc3c
00000150: b025 dc3d 0103 e2bd 7b8b 89bd fbfd d3bd
00000160: 0a93 0c3d 4f85 e1bd ee23 e2bd 1961 c5bd
00000170: 76d9 793a 8442 6d3c 92a6 c83d b7d4 0b3d
00000180: 2d40 bcbd 233f a1bd fb28 7d3d 0e6a 8a3d
00000190: d0b2 c63d e21c 143d 7d4c 89bd d056 583d
000001a0: 4647 ca3d f34b 04bd 223b 32bd 90be d83c
000001b0: 67ef 8cbd dc69 073d bdae a7bd 6cb4 4e3d
000001c0: 0762 b8bd 4c5b a13c 8f70 cabd 2fb8 913c
000001d0: 73d6 b53d 238c c9bd 3f39 d23c 7693 b23d
000001e0: 2498 f73c d3ea 943d 1321 493d 824b 723c
000001f0: 5c49 c23d ca71 cabd 1d9e 6aba 9f03 a43d

2.weight f4 [128, 128]
-0.04564025 0.039565142 -0.02332637 0.03515293 0.07752233 0.00306805 -0.006237167 0.047833104
-0.032637767 0.05644449 0.0695745 0.028011179 0.08245853 -0.011544892 0.010743174 0.0735906
0.05138789 -0.070519455 0.008563033 0.027915476 -0.0020655186 -0.017237866 -0.029927637 -0.0036746091
0.04073912 0.011808268 0.0099920975 -0.0071706157 -0.0046498775 0.06473216 0.045295905 0.07899516
-0.04739775 0.0069073886 -0.015916258 0.013998245 0.032704707 0.07624469 0.04786967 -0.0021069308
0.008906424 0.002094586 0.032833498 0.08139027 -0.075117156 -0.02883114 -0.008420913 -0.0020421597
0.0071989917 0.022581615 -0.064203694 0.026687734 -0.027477212 -0.07965184 -0.05278267 -0.07940921
-0.06454717 -0.093379445 -0.064766705 0.052973624 -0.0056265676 0.07156649 0.067466125 0.027682113
0.043492615 0.09183444 0.01101047 0.023929708 0.004602457 0.0214403 0.094231926 0.014966322
-0.015732622 -0.016356936 0.020411626 -0.0035275116 0.0010963941 -0.08695234 0.061042085 0.0361324
0.07865932 0.039873026 0.06281354 -0.02505132 -0.021823533 0.029432265 0.043639522 0.04434787
-0.07379391 0.0768287 0.004737958 -0.047146607 0.040330008 0.034617167 -0.030521365 0.015818024
0.03168494 -0.03389677 0.05954252 0.007996663 0.046708878 -0.07431139 0.07632768 -0.009485847
-0.078447446 -0.02114945 0.04216457 -0.037284877 0.04020086 0.005525972 -0.07434209 -0.08489813
-0.061448324 -0.059707325 -0.08335978 0.07895896 -0.048654497 -0.0723736 0.0881343 0.043011572
0.08426202 -0.01982777 0.054195005 0.041428074 0.064016625 -0.07487796 0.067689925 0.012780256
0.079847515 0.011228597 0.020799302 -0.01862441 -0.015813008 -0.07599272 0.07291706 0.022773461
0.071592696 0.037931055 -0.040322587 -0.08411782 0.06423207 0.024885235 0.061164886 0.084005296
0.03516921 0.047577124 0.02489816 -0.05221293 -0.08780922 0.0009200191 0.07190563 -0.07677204
-0.02135867 -0.0760431 -0.0011724551 -0.053863753 0.011928411 0.02523535 -0.013032999 0.031583916
-0.08371214 0.06506492 -0.031557392 -0.00170476 -0.045059685 -0.06525763 -0.08014612 0.08458203
0.06923164 0.048800677 -0.058070045 0.04048406 0.034427647 -0.07972899 -0.07503995 -0.014547057
-0.038226333 0.06271729 -0.06934978 -0.019981405 -0.08700792 0.07978436 -0.038678654 -0.04545708
-0.025490668 0.05149224 -0.03855406 0.024340708 -0.089693576 -0.03988673 0.060540047 -0.01502085
-0.006032174 0.08664744 -0.026469706 -0.09185068 0.01680656 -0.019570274 -0.08975393 -0.06749724
0.02849367 0.022074312 0.08805438 -0.028158862 0.011113616 -0.06415663 -0.06747229 -0.014345412
-0.06550434 -0.06480224 0.047994386 0.078630015 0.01894002 0.05281293 -0.014306264 0.0062933555
0.04692128 0.05789568 0.018672636 -0.036871348 -0.08594865 -0.07094344 -0.04008395 -0.0038907765
-0.048500065 -0.00010144694 0.00962833 0.039553523 0.020543953 0.041432206 0.035020668 -0.0037545522
-0.031950314 -0.08235476 0.076836 -0.0035318318 0.079635166 -0.074054256 0.028686047 -0.059039842
0.048511717 0.0051588686 0.043341234 0.009985187 -0.050758105 0.01976454 0.058847696 0.05915536
-0.05264041 -0.00056674983 -0.0177879 0.04361722 -0.07081004 0.08989163 -0.023622943 -0.070724145
00000000: 45f1 3abd 0f0f 223d f216 bfbc 85fc 0f3d
00000010: 07c4 9e3d 5611 493b 2661 ccbb a5ec 433d
00000020: 2eaf 05bd 5632 673d 137d 8e3d b377 e53c
00000030: 05e0 a83d c926 3dbc 2304 303c abb6 963d
00000040: 1c7c 523d 816c 90bd f74b 0c3c ffae e43c
00000050: a75d 07bb 6d36 8dbc ce2a f5bc b6d1 70bb
00000060: 10de 263d 7777 413c e5b5 233c 7cf7 eabb
00000070: 005e 98bb 4b92 843d 3388 393d 37c8 a13d
00000080: 2524 42bd 6057 e23b d062 82bc e558 653c
00000090: 5ff5 053d 2d26 9c3d fd12 443d 6f14 0abb
000000a0: 40ec 113c 5245 093b 6b7c 063d f1af a63d
000000b0: 06d7 99bd 482f ecbc def7 09bc c1d5 05bb
000000c0: 85e5 eb3b 14fd b83c 3a7d 83bd 3ca0 da3c
000000d0: e417 e1bc 8120 a3bd a432 58bd 4ca1 a2bd
000000e0: 4f31 84bd b93d bfbd 68a4 84bd dffa 583d
000000f0: 125f b8bb 7491 923d ae2b 8a3d 99c5 e23c
00000100: 5025 323d b213 bc3d 4265 343c 3c08 c43c
00000110: 35d0 963b 91a3 af3c abfc c03d 4e35 753c
00000120: b3e1 80bc fbfe 85bc 4836 a73c d32d 67bb
00000130: e2b4 8f3a 1214 b2bd 4407 7a3d 91ff 133d
00000140: 2318 a13d e651 233d 63a4 803d 6d38 cdbc
00000150: 44c7 b2bc ef1b f13c 5bbf 323d 1da6 353d
00000160: 4321 97bd 5e58 9d3d df40 9b3b cd1c 41bd
00000170: 1431 253d bbca 0d3d f107 fabc cd94 813c
00000180: 11c8 013d 57d7 0abd dce2 733d 7004 033c
00000190: cf51 3f3d 9230 98bd b051 9c3d 876a 1bbc
000001a0: 0ea9 a0bd 9d41 adbc c2b4 2c3d 07b8 18bd
000001b0: a8a9 243d 3713 b53b aa40 98bd 12df adbd
000001c0: 3db1 7bbd ab8f 74bd 88b8 aabd 3cb5 a13d
000001d0: f049 47bd 9c38 94bd c27f b43d e72c 303d
000001e0: 9191 ac3d d96d a2bc 95fb 5d3d 7cb0 293d
000001f0: 261b 833d 9e59 99bd 04a1 8a3d 4764 513c
00000200: 1887 a33d 26f8 373c 4c63 aa3c 3892 98bc
00000210: 488a 81bc 12a2 9bbd 8a55 953d 698f ba3c
00000220: 319f 923d 985d 1b3d 4c29 25bd f745 acbd
00000230: 1b8c 833d 1fdc cb3c 0888 7a3d f80a ac3d
00000240: 970d 103d 3be0 423d 3af7 cb3c 3add 55bd
00000250: 52d5 b3bd 702d 713a 4243 933d a93a 9dbd
00000260: 61f8 aebc 7cbc 9bbd 11ad 99ba 3da0 5cbd
00000270: 626f 433c 5dba ce3c 5c88 55bc 235e 013d
00000280: 4571 abbd c240 853d 5342 01bd 4172 dfba
00000290: 8190 38bd cba5 85bd a623 a4bd 5839 ad3d
000002a0: 51c9 8d3d 38e3 473d dbda 6dbd 9dd2 253d
000002b0: 0104 0d3d f448 a3bd 8cae 99bd c856 6ebc
000002c0: 3793 1cbd ec71 803d 4207 8ebd 0bb0 a3bc
000002d0: 3531 b2bd fc65 a33d 826d 1ebd 3431 3abd
000002e0: ced1 d0bc 87e9 523d ddea 1dbd 2a66 c73c
000002f0: 44b1 b7bd 4560 23bd d7f8 773d 031a 76bc
00000300: 8ba9 c5bb 3774 b13d ffd6 d8bc 361c bcbd
00000310: e9ad 893c d751 a0bc e9d0 b7bd fe3b 8abd
00000320: 8f6b e93c 30d5 b43c db55 b43d 6aad e6bc
00000330: e215 363c 8d64 83bd e92e 8abd 0509 6bbc
00000340: 2427 86bd 09b7 84bd c395 443d c608 a13d
00000350: 1a28 9b3c 5f52 583d d264 6abc 7e38 ce3b
00000360: 8730 403d 0524 6d3d 5bf7 983c 6906 17bd
00000370: d905 b0bd cb4a 91bd 112f 24bd 66fc 7ebb
00000380: 01a8 46bd e9bf d4b8 25c0 1d3c e002 223d
00000390: cb4b a83c d1b4 293d d571 0f3d ef0e 76bb
000003a0: 55de 02bd 9da9 a8bd 315c 9d3d 4e76 67bb
000003b0: c317 a33d c2a9 97bd 00ff ea3c c3d3 71bd
000003c0: 39b4 463d ba0b a93b 9486 313d e998 233c
000003d0: bbe7 4fbd 3fe9 a13c 480a 713d e44c 723d
000003e0: 789d 57bd f091 14ba eeb7 91bc f8a7 323d
000003f0: db04 91bd 1a19 b83d e784 c1bc d2d7 90bd

2.bias f4 [128]
0.0071495874 -0.026764944 0.017946037 -0.039199512 0.018804703 0.06546185 0.07445437 -0.01702177
0.062387828 -0.070620775 0.064971566 -0.052941907 -0.065000534 0.016482016 0.05072957 0.06320796
0.026331974 -0.064191245 -0.051796827 -0.02889653 0.048597686 -0.08504836 -0.05285369 0.025591264
-0.028498843 -0.08777589 -0.042989474 -0.031599663 0.0011912972 -0.017853858 -0.07415639 0.022249388
-0.009971779 0.010148201 -0.017418696 -0.068664104 -0.0664041 -0.030728227 0.050396167 -0.07244814
-0.063614935 0.05220107 -0.09265186 -0.025242373 0.04737058 0.051013637 0.06650813 0.034826893
0.08647101 0.026531458 0.043347735 -0.025317889 -0.06323361 0.044205736 -0.08143709 -0.04955548
0.061627124 0.08415037 -0.07366235 0.046431832 0.062246896 -0.010508717 -0.0038975135 0.0023824882
0.055839587 -0.024401827 0.07770001 -0.04683327 0.07224652 0.036868133 -0.08105201 -0.034451585
0.00058904226 0.0044109127 0.018370667 -0.045598608 0.03587814 -0.003333133 0.05369417 0.02452817
-0.06166791 -0.053628866 0.044633888 0.026219385 -0.03719466 0.022223055 -0.011113462 0.06577645
0.07418447 0.046801884 0.0017617368 -0.009298889 -0.07594527 -0.088686354 0.042902496 -0.018703077
-0.043277755 -0.033742193 -0.008117615 0.015499429 -0.008167069 0.029118117 -0.0455518 -0.062279604
-0.025717217 0.040467873 -0.034618184 0.07049955 0.05765091 0.0630507 -0.049649455 -0.075915486
0.07803548 0.07349959 -0.005582555 -0.044501215 -0.08359703 -0.026785282 0.02455225 0.0105312085
-0.025491497 0.060121737 0.009834308 0.0706765 -0.04915022 -0.017280947 -0.07467453 0.06934022
00000000: 1647 ea3b 2842 dbbc 9103 933c ab8f 20bd
00000010: 520c 9a3c dd10 863d 887b 983d 3d71 8bbc
00000020: 618a 7f3d a0a1 90bd d00f 853d 9dd9 58bd
00000030: 001f 85bd 4b05 873c cfc9 4f3d 2d73 813d
00000040: 27b6 d73c b376 83bd e928 54bd 6ab8 ecbc
00000050: 5e0e 473d d62d aebd 1c7d 58bd c5a4 d13c
00000060: 6876 e9bc d9c3 b3bd bb15 30bd a66e 01bd
00000070: 4d25 9c3a 4142 92bc 4edf 97bd 5944 b63c
00000080: ac60 23bc a444 263c a7b1 8ebc c49f 8cbd
00000090: dffe 87bd c3b9 fbbc 366c 4e3d b15f 94bd
000000a0: 8c48 82bd cad0 553d 42c0 bdbd 18c9 cebc
000000b0: a707 423d adf3 503d 6a35 883d a5a6 0e3d
000000c0: b717 b13d 8058 d93c 658d 313d 7667 cfbc
000000d0: 9f80 81bd 1311 353d 7dc8 a6bd b0fa 4abd
000000e0: b96c 7c3d 0757 ac3d 49dc 96bd 4e2f 3e3d
000000f0: 9af6 7e3d c12c 2cbc 6d6d 7fbb 8523 1c3b
00000100: 0db8 643d 57e6 c7bc 2f21 9f3d 3ed4 3fbd
00000110: fcf5 933d 0a03 173d 99fe a5bd 1b1d 0dbd
00000120: f569 1a3a 6b89 903b 157e 963c 9bc5 3abd
00000130: f5f4 123d b170 5abb 6bee 5b3d 4def c83c
00000140: 7e97 7cbd f1a9 5bbd 06d2 363d 09ca d63c
00000150: 6e59 18bd 200d b63c 3d15 36bc ceb5 863d
00000160: 07ee 973d 55b3 3f3d 14ea e63a 5e5a 18bc
00000170: 3289 9bbd 31a1 b5bd 87ba 2f3d 3237 99bc
00000180: 0444 31bd 4135 0abd bfff 04bc 51f1 7d3c
00000190: 2ccf 05bc 1e89 ee3c 8694 3abd e618 7fbd
000001a0: eaac d2bc a4c1 253d cccb 0dbd 1162 903d
000001b0: 5c23 6c3d ba20 813d 3a5d 4bbd 9479 9bbd
000001c0: 11d1 9f3d f486 963d deed b6bb e846 36bd
000001d0: eb34 abbd cf6c dbbc cd21 c93c 178b 2c3c
000001e0: 8bd3 d0bc 3642 763d 1420 213c d7be 903d
000001f0: be51 49bd c690 8dbc f6ee 98bd 3f02 8e3d

4.weight f4 [68, 128]
-0.036328353 0.035059966 -0.032444935 0.07319322 0.084170036 0.014128502 -0.023997132 0.022480566
-0.08167981 0.053886715 -0.041608546 -0.015389993 -0.062504664 0.04420285 -0.05038572 -0.016477842
0.080256514 0.06487434 -0.011705027 -0.035172798 0.08174617 -0.018084537 0.023544567 -0.055578794
-0.057805646 -0.046989873 -0.08352484 0.058349095 -0.08491816 0.0025971166 -0.057489622 -0.05752616
0.016355686 -0.05362262 -0.02950939 0.040935602 -0.0070762713 -0.023319757 0.029784419 0.061761264
-0.0851426 -0.0041207382 0.04180076 -0.020180812 -0.032336883 -0.0783968 0.06529522 -0.015731538
0.00276285 0.0032989683 -0.08523822 -0.035799045 0.017811136 0.01146546 -0.07324134 0.06253747
-0.0006275531 -0.02391308 0.01318227 -0.026968326 0.052220207 -0.025437372 0.07754221 0.028659781
0.016121862 0.06724532 0.045341358 0.0088584535 0.006134095 0.007208128 -0.061297104 -0.063532755
0.049288847 0.0596172 -0.0724186 0.07006821 0.049001638 0.041555922 -0.0038413322 0.08984272
-0.022258343 -0.022913171 -0.06398517 -0.022872034 -0.06811719 0.08289894 -0.07306123 -0.022316558
-0.05551285 -0.044896755 0.015812742 -0.018053632 -0.08258977 0.0701518 -0.061060783 0.043641258
-0.06328661 -0.08775738 0.04353177 -0.020559762 -0.018913683 -0.036639232 0.053598236 0.045019176
-0.047246315 -0.01741854 -0.050413143 -0.06707051 -0.08509638 -0.007693126 -0.035477806 -0.033684187
-0.06647982 0.060718317 0.02954127 0.06845482 -0.08714862 0.074088566 0.021335565 0.06705671
-0.0545452 -0.02446148 0.0428547 -0.04567385 -0.01310261 -0.087537706 -0.0055244383 -0.053451765
-0.05342244 0.072836645 0.045415334 -0.07494278 0.021340875 0.029909698 -0.085157596 -0.013469727
-0.0032286628 0.0034767715 0.07570993 0.012954014 -0.005639863 0.0014512496 -0.017108994 -0.07702394
-0.04309037 -0.024862442 0.072709724 0.04282745 -0.06470969 0.009022705 -0.07986315 0.057043035
-0.076119184 0.0044961204 0.029942323 0.08721317 -0.05156132 -0.024441205 0.025405418 -0.060390085
-0.08331155 0.025123915 -0.0012327482 -0.0812545 -0.011335235 -0.039016176 0.052889403 0.009057731
0.024907386 -0.0074547376 0.07791666 -0.027504755 0.004417256 -0.037632633 -0.0789635 -0.053629138
0.039616324 -0.008668192 0.08554923 0.05296859 -0.040635176 -0.08620061 0.033195287 0.07865386
-0.025149107 -0.051494572 -0.056302834 0.08388855 0.059167743 0.03716218 -0.07351341 -0.05533644
0.014773925 -0.0794331 -0.040792957 0.01127531 -0.014597123 0.055036973 0.06445323 0.049616866
0.048304364 0.08459156 -0.027078163 -0.069615036 -0.08176537 0.06531575 -0.035786446 -0.026294399
0.06306825 0.0076934053 -0.078866534 -0.06504229 -0.08487604 0.05174793 -0.08428081 -0.04300125
-0.051055588 0.0030679172 -0.059208333 -0.030618107 0.014655191 -0.056923844 0.021983609 0.041779652
0.021863976 0.046505224 0.0015908948 -0.0028362132 0.0004790286 -0.020467222 -0.08646679 0.008018182
0.0011410624 0.059890296 -0.04253974 0.008955291 0.010458195 0.06095205 0.03245989 -0.054871473
-0.024315847 -0.049383745 0.06901617 -0.00091579324 0.07020148 0.022112045 0.017894033 -0.018856663
-0.029314384 0.013004436 -0.068347506 0.03776515 0.053046796 0.07761281 -0.07028362 -0.004072062
00000000: 0acd 14bd 0a9b 0f3d fbe4 04bd 54e6 953d
00000010: 5761 ac3d 3c7b 673c a295 c4bc 2a29 b83c
00000020: bf47 a7bd 51b8 5c3d b96d 2abd 4f26 7cbc
00000030: 7202 80bd 0c0e 353d 4261 4ebd 8afc 86bc
00000040: 875d a43d d7dc 843d 71c6 3fbc 5a11 10bd
00000050: 896a a73d 0626 94bc 89e0 c03c 97a6 63bd
00000060: 9dc5 6cbd 7478 40bd 120f abbd 76ff 6e3d
00000070: 93e9 adbd 6334 2a3b 3d7a 6bbd 8da0 6bbd
00000080: 5cfc 853c 64a3 5bbd adbd f1bc 17ac 273d
00000090: 11e0 e7bb 1309 bfbc 74fe f33c 61f9 7c3d
000000a0: 3e5f aebd 4207 87bb 4637 2b3d 3b52 a5bc
000000b0: ae73 04bd 808e a0bd 80b9 853d 6ddf 80bc
000000c0: ee10 353b 8133 583b 6091 aebd 05a2 12bd
000000d0: a9e8 913c a0d9 3b3c 8eff 95bd a513 803d
000000e0: 6082 24ba 5de5 c3bc 73fa 573c aeec dcbc
000000f0: dbe4 553d 0962 d0bc 73ce 9e3d ebc7 ea3c
00000100: ff11 843c eab7 893d dcb7 393d 0c23 113c
00000110: 8500 c93b 2932 ec3b ac12 7bbd 761d 82bd
00000120: 1ae3 493d 2a31 743d 3450 94bd ec7f 8f3d
00000130: f1b5 483d 8b36 2a3d dcbe 7bbb 76ff b73d
00000140: 2157 b6bc 67b4 bbbc a80a 83bd 225e bbbc
00000150: 0681 8bbd ebc6 a93d 20a1 95bd 37d1 b6bc
00000160: 7161 63bd a9e5 37bd b989 813c 36e5 93bc
00000170: d324 a9bd bfab 8f3d df1a 7abd 2dc1 323d
00000180: 699c 81bd 24ba b3bd 5f4e 323d f26c a8bc
00000190: def0 9abc 0513 16bd d389 5b3d 0766 383d
000001a0: 5a85 41bd 53b1 8ebc 037e 4ebd 435c 89bd
000001b0: 0347 aebd 9e16 fcbb 2d51 11bd 6ef8 09bd
000001c0: 9226 88bd c5b3 783d 8900 f23c 0a32 8c3d
000001d0: fa7a b2bd bfbb 973d ecc7 ae3c 0755 893d
000001e0: ca6a 5fbd 7163 c8bc 6988 2f3d 8114 3bbd
000001f0: 54ac 56bc f846 b3bd 5906 b5bb 3df0 5abd
00000200: 7dd1 5abd 612b 953d 6e05 3a3d 9a7b 99bd
00000210: 0fd3 ae3c 2f05 f53c 1b67 aebd 21b0 5cbc
00000220: f997 53bb 8cda 633b cf0d 9b3d 133d 543c
00000230: 9ace b8bb db37 be3a 2928 8cbc babe 9dbd
00000240: 877f 30bd 52ac cbbc d6e8 943d d66b 2f3d
00000250: 8486 84bd f8d3 133c 4b8f a3bd f5a5 693d
00000260: 60e4 9bbd 3154 933b 9a49 f53c d29c b23d
00000270: f631 53bd ec38 c8bc 061f d03c 985b 77bd
00000280: 3f9f aabd abd0 cd3c 2a94 a1ba c268 a6bd
00000290: 6cb7 39bc 6dcf 1fbd 8fa2 583d e166 143c
000002a0: 930a cc3c df46 f4bb c592 9f3d a751 e1bc
000002b0: a1be 903b ad24 1abd 9eb7 a1bd 3aaa 5bbd
000002c0: ba44 223d 0805 0ebc 6f34 af3d 98f5 583d
000002d0: 1271 26bd f289 b0bd c8f7 073d 4615 a13d
000002e0: 8005 cebc f9eb 52bd cd9d 66bd c3cd ab3d
000002f0: e059 723d 5f37 183d 338e 96bd 77a8 62bd
00000300: 550e 723c d2ad a2bd 8416 27bd 14bc 383c
00000310: c528 6fbc 736e 613d 0e00 843d 0e3b 4b3d
00000320: ccda 453d 573e ad3d 06d3 ddbc 5492 8ebd
00000330: 9a74 a7bd 44c4 853d cf94 12bd 5a67 d7bc
00000340: ed29 813d f618 fc3b c784 a1bd e434 85bd
00000350: 7dd3 adbd a3f5 533d 6b9b acbd 1422 30bd
00000360: aa1f 51bd 1c0f 493b 7084 72bd d3d2 fabc
00000370: 541c 703c fa28 69bd f816 b43c 2421 2b3d
00000380: 151c b33c 437c 3e3d 9285 d03a c3df 39bb
00000390: 2126 fb39 e0aa a7bc 8015 b1bd b15e 033c
000003a0: b38f 953a 874f 753d 273e 2ebd 36b9 123c
000003b0: d958 2b3c dba8 793d a9f4 043d e9c0 60bd
000003c0: 0732 c7bc 9c46 4abd 5a58 8d3d d811 70ba
000003d0: cbc5 8f3d 5224 b53c 8296 923c 4a79 9abc
000003e0: b824 f0bc 8f10 553c c7f9 8bbd a1af 1a3d
000003f0: 9947 593d 77f3 9e3d dcf0 8fbd ef6e 85bb

4.bias f4 [68]
0.0868444 0.071355276 -0.04063879 -0.050467614 0.05383369 0.0638207 -0.0687445 0.044440124
-0.05385873 0.03254035 0.02385817 -0.049195673 0.019446706 -0.052031092 -0.06793159 -0.050687354
-0.05171601 -0.013241935 -0.076623 0.055625822 0.03218439 0.014541396 0.07968265 -0.0006848017
0.05501181 0.012340209 0.036104742 -0.058762353 0.0294419 -0.06847233 -0.07198201 0.0014789925
-0.028455863 -0.035524715 0.07855892 0.021517156 0.07161026 0.020226082 -0.02407453 0.040691715
0.046909258 0.028360555 -0.01047858 0.012223288 0.06697629 -0.014850108 -0.0063410434 -0.017718723
0.011203845 0.014330948 0.080966994 0.04966736 0.07515806 0.05310942 -0.012418891 -0.021450195
0.013654017 -0.081240706 -0.08565381 0.010730561 -0.020366086 -0.039382413 -0.01785776 0.061069544
0.058148626 -0.07387638 -0.018004283 0.08325967
00000000: 7adb b13d b722 923d dc74 26bd 21b7 4ebd
00000010: b780 5c3d 6db4 823d ebc9 8cbd d906 363d
00000020: f99a 5cbd 0849 053d 3572 c33c 6781 49bd
00000030: b34e 9f3c 8e1e 55bd b81f 8bbd 8b9d 4fbd
00000040: 2bd4 53bd b3f4 58bc 85ec 9cbd e7d7 633d
00000050: c7d3 033d 093f 6e3c a830 a33d 4484 33ba
00000060: 1054 613d 972e 4a3c 91e2 133d cbb0 70bd
00000070: 2430 f13c 393b 8cbd 4e6b 93bd c1da c13a
00000080: 451c e9bc 5d82 11bd 80e3 a03d bf44 b03c
00000090: 66a8 923d 2bb1 a53c f337 c5bc 5bac 263d
000000a0: ec23 403d 6554 e83c 5aae 2bbc 3044 483c
000000b0: dd2a 893d de4d 73bc 87c8 cfbb db26 91bc
000000c0: 5590 373c 5acc 6a3c 06d2 a53d 0070 4b3d
000000d0: 78ec 993d 4389 593d 9b78 4bbc 52b8 afbc
000000e0: 19b5 5f3c 8761 a6bd 446b afbd 3ccf 2f3c
000000f0: c7d6 a6bc 744f 21bd 704a 92bc 0f24 7a3d
00000100: 412d 6e3d 804c 97bd b87d 93bc 0c84 aa3d
