components/trainer/mlp_model.pth (torch, 140311 bytes, 6 tensors)

0.weight f4 [128, 72]
00000000: f09f eb3d 2ddb 433d 04c3 0ebe cfe0 76bd
00000010: 3640 9abd 75a8 a83a 1b0d 26bd 8d81 313e
00000020: 3c48 393c c518 13be 07a1 4ebe 93c7 a43d
00000030: ea35 49bc f7e2 b63d 31f6 683d ee36 b8bb
00000040: dd40 52bd 771b 1b3d 3290 2b3e bad6 09be
00000050: 04e2 db3b e85c fbbd d9af c33d 02ab 50bd
00000060: 651b 10be 800c 923c d8c0 ef3a 0c39 91bc
00000070: 30fc 3abd 3298 34be bf76 403a 4383 303d
00000080: e751 5fbd c86e e2bd 995f 213e 3d27 46bc
00000090: 8597 b4bd c256 aabd 0dcf 91bd 8e89 b73d
000000a0: 33f6 55bc 3300 5f3e c566 5dbd c21e 9ebc
000000b0: 8f2c 803d 6592 d7bd 2b26 983c 42af a2bc
000000c0: 8eab 1c3e 9af3 81bc 341c 0f3c 8ded 7fbd
000000d0: e1fc 7e3d b7c9 c6bc 31f3 29be ccd8 83bc
000000e0: d475 353d 962e d43d 4bcc bcbd 7333 04be
000000f0: f85d e23b be39 e2bc 2370 8fbd 5b83 983d
00000100: 8f32 19be a5b8 cebd 56af 043e 0e09 88be
00000110: 7c01 9fbc a790 b3bd fc10 663c 3297 ccbc
00000120: c8ea 16bd 0afb b13d 9e49 08be 7068 96bd
00000130: 30ef 553d 90e4 1f3e 02a2 003e 8a6d 73bd
00000140: 6aae 7bbc 999d 443e fe49 afbc 1970 91bc
00000150: 1a6d ec3c c1e8 2b3e b032 ff3d d0b9 39be
00000160: c541 ab3d 9d9a a73d 8acf 17bc 3178 133e
00000170: 7d43 00bd 9597 f9bc ac28 bf3d 5eb5 ba3c
00000180: fd22 623e 8016 c33c 3f18 17bd cc1a 4e3e
00000190: d1fd d2bc 0599 1dbe 9153 0e3e 1c36 40bd
000001a0: 9a70 4d3c 3f03 09bd b6dd 3cbb ea5f 12bd
000001b0: 5ee6 c33c 2ee9 623d 19a6 a2bc 2154 f7bc
000001c0: 3588 063e 5d42 fc3d 102c 0bbd 7c10 36be
000001d0: 00be 25bd a489 f2bc 1046 08bc 6355 3abe
000001e0: 4c33 1dbd 122c cbbd f755 cb3d 0b29 e93d
000001f0: cbfc aa3c aefa 263b 63d0 043e aa67 06be
00000200: e174 133e 4203 17bd 6f91 ccbc a875 8f3d
00000210: 064d a1bd b121 493b 8555 a2bd d051 99bd
00000220: 31c8 fc3d c170 aebd e913 0e3e c0ca 87bd
00000230: d462 b43c bcb0 0bbd 2c1e 6fbd 7e86 40bd
00000240: 676c 013e 39a8 a2bd 3f9e 153d 46bc 653d
00000250: 32b9 8f3d f053 f13c fb89 41bd 8cba d83d
00000260: 40ef 19be 7a9d b4bd fb38 65bd 0d0f 1ebe
00000270: 84f0 543d 44a2 d43d 74b3 9fbd a054 09bd
00000280: e15f a33d ba6c f7bd 9936 23bc cc5d 793d
00000290: 72e3 443e 3fbe 0ebe 7e46 69bd db5e 27bd
000002a0: 4391 883d 4107 543c b149 d7bd 8876 51bc
000002b0: 5a30 8abd 8249 263d 2689 143e abd1 3fbe
000002c0: 6fdf 1bbd 43d4 cdbd b7d1 853c 5c13 a6bd
000002d0: cf0a 9dbd ddbf f83d 2d65 1fbd 9e94 5e3e
000002e0: 3e87 5a3d 38be 1dbe 3ed8 f3bb 6d93 b63d
000002f0: f5eb 063e 9f67 583c 2a3b a93d 78d7 f239
00000300: 842d 1f3d 68d8 a53d 710c 833c a804 8bbc
00000310: 05b2 863d d990 a53d 5f5a 9e3d fc9d f4bb
00000320: 5760 88be d8af 0dbe 1437 c8bc 8c64 91bd
00000330: b770 853d 73f5 95bd 32c4 873d efad d2bb
00000340: 1bcc ae3c 26b0 debb c813 24be 61c2 63bd
00000350: e055 1ebc f0a6 e4bc 558f 92bc ed80 903d
00000360: e2ae 1ebe 5bcf 703d 99d8 013d 0d70 fbbc
00000370: ecff d9bc 901c 793d 723b 83b8 ddae 37be
00000380: 7f0a b03d 2ed0 b43c 6654 37be 9c48 ed3c
00000390: cd7b 9c3d 86f1 f8bb 0bc3 fe3d d7b0 78bc
000003a0: 97dd f93d bb3d b43d 1d76 0c3e 5e7f 12bc
000003b0: 5083 913d 348c 063d 11f8 5bbd 91d6 4bbd
000003c0: c6a2 c73d cd6f 87bd ccc8 77bd 3614 2bbe
000003d0: 1f93 763d 921a 6bbd 12b6 e73d b350 a2bd
000003e0: fa7e f0bd bb96 ebbd 68d1 103e 6b8e 153e
000003f0: e1de 2cbe 79db 833d cdea 513d 58ab 3cbc
0.11505115 0.047816444 -0.1394158 -0.060272988 -0.075317785 0.0012867587 -0.040539842 0.17334576
0.011308726 -0.14364918 -0.20178615 0.08045878 -0.0122809205 0.08930009 0.05687541 -0.0056217825
-0.05133139 0.03786799 0.16754225 -0.13460818 0.006710293 -0.1227358 0.09555025 -0.050944336
-0.1407295 0.017828226 0.0018291725 -0.017727397 -0.04565066 -0.17636183 0.00073419133 0.04309393
-0.054521468 -0.11056286 0.15759124 -0.012094316 -0.088179626 -0.08317329 -0.0711957 0.08961783
-0.013059187 0.2177742 -0.054053087 -0.019301776 0.06258499 -0.105259694 0.018572887 -0.01985896
0.15299818 -0.015863229 0.0087347515 -0.062482405 0.062252883 -0.024266107 -0.16596676 -0.016094588
0.044301823 0.10360448 -0.09218653 -0.12910251 0.0069081746 -0.027615424 -0.0700381 0.07446929
-0.14960693 -0.10093812 0.1295751 -0.26569408 -0.019409887 -0.087678246 0.014042135 -0.02497444
-0.036845 0.0869046 -0.13309333 -0.073441386 0.05223006 0.15614533 0.12561801 -0.059430636
-0.015361408 0.19200744 -0.021397587 -0.017753648 0.028860617 0.16788007 0.1246084 -0.18137288
0.08362154 0.08183787 -0.00926579 0.14401318 -0.03131436 -0.030467788 0.093339294 0.02279156
0.2208366 0.02381444 -0.036888357 0.2012741 -0.025755795 -0.15390404 0.13899066 -0.046926603
0.012539053 -0.03345036 -0.0028818673 -0.035736002 0.023913559 0.05539816 -0.019854592 -0.030191483
0.13137896 0.12317345 -0.03397757 -0.17779726 -0.0404644 -0.029606648 -0.008317485 -0.18196635
-0.038379 -0.09920515 0.09928506 0.113847815 0.020872494 0.0025479007 0.12970118 -0.13125482
0.14400055 -0.03686834 -0.024971692 0.07004863 -0.07876019 0.0030690248 -0.07926468 -0.074863076
0.12342871 -0.085176 0.13874783 -0.06630468 0.022019781 -0.034104094 -0.058378384 -0.04700326
0.12639008 -0.07942242 0.03652787 0.056087755 0.07017745 0.02945897 -0.04725073 0.10582456
-0.15032673 -0.08819099 -0.055962544 -0.15435429 0.051987186 0.10382512 -0.077979 -0.03352797
0.07977272 -0.12081285 -0.009961748 0.060880467 0.19227389 -0.1393976 -0.056951992 -0.040861946
0.066683315 0.012941183 -0.105121024 -0.012784608 -0.067475036 0.040597446 0.14505443 -0.18732326
-0.03805488 -0.10050251 0.016335351 -0.08109161 -0.07668077 0.1214597 -0.038914848 0.2173638
0.053351633 -0.15404594 -0.0074415496 0.08914838 0.13175948 0.013208299 0.08263238 0.00046318374
0.038861766 0.08097917 0.015997143 -0.016969994 0.06576923 0.08084268 0.07732081 -0.0074651223
-0.26636 -0.1383661 -0.024440326 -0.07099256 0.06515639 -0.07322206 0.06629218 -0.006429426
0.02133756 -0.006795901 -0.16023171 -0.055605296 -0.009664029 -0.027911633 -0.017890612 0.07055841
-0.154964 0.0587915 0.031700704 -0.030693078 -0.02661129 0.060818255 -6.257639e-05 -0.17937799
0.08595752 0.022071924 -0.17903289 0.028965287 0.076408006 -0.007597151 0.12439545 -0.015178881
0.12200468 0.08800837 0.13716932 -0.0089414995 0.07105124 0.032848552 -0.05370337 -0.049765173
0.097478434 -0.06613121 -0.06049423 -0.16706929 0.0601989 -0.057398386 0.11314024 -0.079255484
-0.11742969 -0.11503359 0.14142382 0.1460511 -0.16881897 0.064383455 0.051249314 -0.011515461

0.bias f4 [128]
00000000: 40b1 fc3e a782 bc3e 747f b83e dedf fe3e
00000010: 5fc3 b93e b2b2 cc3e 65b7 f13e a8d1 b43e
00000020: 7439 733e d756 e63e bb12 f83e d356 003f
00000030: 5c3a d73e 5e80 ca3e 3a80 953e 67ce ce3e
00000040: 6197 bf3e 4a31 c03e 2c26 df3e 7968 cf3e
00000050: 1f4a cd3e 0736 cd3e 1367 d13e e340 e83e
00000060: f0b4 b83e 8d10 d23e 72ee c63e fb39 f53e
00000070: d1b2 d73e 15d8 f23e 3bff 953e 0d36 9e3e
00000080: 0bf6 e33e 86d4 fe3e 312f c23e 8662 b23e
00000090: 0881 e53e b326 cd3e d036 973e f17c d03e
000000a0: 7835 fc3e f5b3 f13e 18a4 e93e e98e fd3e
000000b0: fac0 cd3e eb6d bc3e ccc1 dc3e 890f e23e
000000c0: f9eb 043f 1452 f23e 0bae d03e 1900 f83e
000000d0: 5337 ea3e 0bde f03e 6d29 813e 6f20 d23e
000000e0: d544 ce3e f7ab ee3e 0a3c b73e af02 f83e
000000f0: 0dd5 d43e 5eb1 ca3e 1654 d03e 955b 043f
00000100: bcf6 a93e 9bce e03e 1899 ee3e 60fa 9c3e
00000110: 484a f63e 2953 be3e 25d2 be3e fd14 8d3e
00000120: 9562 e23e 5a9a be3e 2446 aa3e 3f85 b93e
00000130: 5b63 dc3e 7f77 e13e 722e b53e 3f72 d03e
00000140: fecc db3e 2409 de3e 9e63 ef3e b333 f83e
00000150: 5d2a d23e 8b45 0b3f 6524 f93e d7c3 d63e
00000160: 2bc5 e83e ef13 013f d973 d23e 9e1c 003f
00000170: 43fc a13e df84 c23e f5a3 af3e ab18 cb3e
00000180: 9eb1 e53e 2181 963e f38f a43e 220b d33e
00000190: 3414 c73e 0b57 c93e f383 ac3e 9844 a13e
000001a0: e8aa a03e 2df3 ff3e e2f5 f03e 3ffe d23e
000001b0: 8118 b03e 7ab0 da3e 1a90 a13e 9dd6 953e
000001c0: 4b0e ce3e 0eb3 033f 933c fa3e cb4b 9a3e
000001d0: fcac e43e 65c0 b63e 9ee2 ea3e 6789 ee3e
000001e0: 88b8 d63e 709d e03e e0f0 8d3e 2df6 c03e
000001f0: 6318 d63e eba6 c83e 4b56 8d3e fd47 f63e
0.4935398 0.3681843 0.3603474 0.49780172 0.3628187 0.39980084 0.4721023 0.35316205
0.23752385 0.4498813 0.4845179 0.50132483 0.42036712 0.3955106 0.29199392 0.40391847
0.3742018 0.37537605 0.4358381 0.40509394 0.40095612 0.40080282 0.40898952 0.45362005
0.36075544 0.41028252 0.38853794 0.47895798 0.42128614 0.47430483 0.29296288 0.30900612
0.44523653 0.49771518 0.3792663 0.34840792 0.44825006 0.40068588 0.29534006 0.40720323
0.49259543 0.4720761 0.45633006 0.49523094 0.40186292 0.3680261 0.43116605 0.44152477
0.51922566 0.47328246 0.40757784 0.48437575 0.45745334 0.47044405 0.25226918 0.4104037
0.4028689 0.46615574 0.35787994 0.48439547 0.41568795 0.39588445 0.40689152 0.51702243
0.33196056 0.43907627 0.46601176 0.3065977 0.48103547 0.3717282 0.37269703 0.27555075
0.44215837 0.37227136 0.33256638 0.3623447 0.43044552 0.4403648 0.35386997 0.40712163
0.42929834 0.4336635 0.4675569 0.48476943 0.41047946 0.5440299 0.4866058 0.4194629
0.45462927 0.5042104 0.4110401 0.50043666 0.31637773 0.37991998 0.34304777 0.39667258
0.44862074 0.29395393 0.32141075 0.4121943 0.388826 0.3932422 0.3369442 0.31497645
0.3138039 0.49990216 0.47062594 0.412096 0.34393695 0.42712766 0.31555253 0.292653
0.4024528 0.5144509 0.4887434 0.3013595 0.44663227 0.3569366 0.4587602 0.46589205
0.4193766 0.43870115 0.27722836 0.37687817 0.4181548 0.39189848 0.276049 0.48101798

2.weight f4 [128, 128]
00000000: 5867 023e 1e41 7d3d 27f0 6dbd 3737 803d
00000010: 44f1 513e 2cf2 2fbd 933c 293d 3995 7cbd
00000020: 67d3 7a3d d5f2 e1bc 7a78 be3d 6db2 3bbd
00000030: 55cf 9b3b d189 8e3d 34f5 a8bc 7960 3cbc
00000040: 2586 b83d 491f 44bd 886a 3abc bb3d fbbc
00000050: 9baa 95bd 8261 65bd 80d4 b0bc 6bed 143e
00000060: 3953 96bb 9cf9 013d 689f 433d ae9d 363c
00000070: 2d29 823d e304 273d 95a6 cebc 4150 a13d
00000080: 100d 41bd 5685 183d 3201 293e fe67 0dbd
00000090: 6ba9 1c3e b396 ac3a f12d a8bc 7aab 903c
000000a0: db0f 0d3e 8376 eabc 5005 7e3c 6030 c73d
000000b0: f7db ebbc d835 863d e2d6 803c b727 02bd
000000c0: 60b2 0abc cf13 b93c 502b bf3d acec 9b3d
000000d0: 47ba 35bd ab71 e8bd aeab cc3c d88d 9f3d
000000e0: 275f a0bc 4ffa a23d 577e c03d e038 7f3d
000000f0: 03e3 89bc c9c9 9c3d d126 1ebd d380 38bd
00000100: 3113 263d 0fd4 36bd 4d59 f03b 5c8e 243c
00000110: 9ff6 00bc 1aca 2fbe 2921 8dbd dfbe fc3c
00000120: 1c9e 1a3e 749c 14be 9775 af3b 5f51 3e3c
00000130: caa6 d7bd 8685 9dbc d1a8 1dbd ded2 cabb
00000140: 01d3 c7bd 5508 4ebb 8be7 f23d 03ae c83d
00000150: c154 bf3d 9536 243c 9864 603c 0bdc 243c
00000160: cdf1 96bd 136e a23d 90e4 583d 3d5e 0c3d
00000170: 6865 a6bc c916 a8bd b9bc d03d 64c8 9fbc
00000180: 1e54 edbb 4eb1 d1bb b2d8 fb3c 2d1d c3bd
00000190: d2ae ebbc 4655 7e39 2c97 123d ea39 863d
000001a0: c4db d1bd 040e 873c e562 313d 283a 973d
000001b0: 02aa 983c 7e2d 943d 93e0 723d add1 3dbd
000001c0: 57f4 253d 57c0 923d e5bc 9b3d 9819 1f3d
000001d0: 3fe5 84bd 509d 40bc 8225 f33d 6ff5 e63d
000001e0: 2515 9cbd ae34 173e 2e5c fa3d afe8 dfbd
000001f0: 8bb0 8ebd 3eb9 823d a0b7 003d 97cb 48bd
00000200: 303e 2b3e ff2a b33c d17a 4bbd 852c 953d
00000210: 5731 173d de6c 90bc 7052 933d d89d 7dbc
00000220: 7b1a 72bd 25ea f0bd 4c36 223e 1be4 003d
00000230: 79f0 223e c093 323e 353c e53d f4cf 04be
00000240: 34fb 253c 2878 b33c 6683 9e3d 4d97 383e
00000250: 0035 9c3d 3ec8 c33d 788f 81bc 611e 1e3e
00000260: b16c 12be 446c 243e bdd5 90bb f972 b7bb
00000270: d231 a23d 4111 bb3d c579 023e 3926 db3d
00000280: 572d 3cbc a376 813d be2a cd3d fbc5 6d3d
00000290: 7df2 f33c b24f d73d 9b68 d7bd a75d bf3d
000002a0: 0611 d0bd e1eb 13bd b855 123d 9b88 64bd
000002b0: 0b7d cd3c 79ae 0abe c08f 4b3d ac27 9d3d
000002c0: 7020 ab3d 5b89 3b3c d4f2 e83c c7ca 8d3c
000002d0: 5cf0 933d 0760 c93c 83b8 9fbc f7ae 08be
000002e0: ac11 113d 2084 8dbd cb49 3ebd 9107 a93d
000002f0: 4b00 fcbc e60d dcbc 4860 0b3d 018b 1cbe
00000300: e1f5 66bc dc44 9f3d c1df 7e3c 37da b8bd
00000310: f8bc 1ebd ac3f 1c3e bc69 db3d e6ec 8e3d
00000320: b0bf 35bc 17df 503d 0379 2d3c 8448 1bbc
00000330: 65f3 aa3d 2974 34be f1b2 113d 1419 e93d
00000340: ae44 793c f05b 153e 2307 273e 3fd7 56bd
00000350: b236 533c e13a f33c bc93 c53d d966 8b3d
00000360: e787 323d 22dc 703c 5338 85ba 5ad3 89bd
00000370: ae7b e6bc 6b76 993c 13e4 9b3d 07a3 a9bd
00000380: cb1c 04be 0488 313e 5cc7 b63c 4ad0 b9bd
00000390: 4e60 473d f00e 8e3d bf83 2a3d fa72 c03d
000003a0: 1ce8 02bd d135 48bd cc54 1b3d afde 3839
000003b0: bb3f 453c 535d be3d 5931 823d e5a3 37bd
000003c0: 2e93 383e 6d4a 623c 5f8b 843d 09c0 ddbd
000003d0: 3b85 92bd edc7 ecbc 4e23 083e 9cce 1c3e
000003e0: a927 dbbc 9d0f 1dbe 9aa6 a63c b23c 713d
000003f0: 4e77 a43d 084e e4bc 415c 2cbd cd11 0bbc
0.12734735 0.06182968 -0.058090355 0.062605314 0.20502192 -0.042955562 0.041317534 -0.061665747
0.061236765 -0.027581612 0.09300323 -0.045824457 0.0047549405 0.0695988 -0.020624734 -0.01149761
0.09009961 -0.0478814 -0.011377938 -0.030669084 -0.07307931 -0.056001194 -0.021585703 0.14543693
-0.0045875576 0.031732187 0.047759444 0.011145992 0.0635551 0.040776145 -0.025225917 0.07876635
-0.047131598 0.037236534 0.16504362 -0.034523003 0.15299003 0.001316747 -0.02052972 0.017659891
0.1377558 -0.028620964 0.015504196 0.09726024 -0.02879141 0.06553239 0.015727464 -0.031776156
-0.0084653795 0.022592453 0.09334433 0.07613501 -0.0443671 -0.113498054 0.024984207 0.077907264
-0.019576622 0.07957899 0.093990974 0.0623101 -0.01683188 0.07655675 -0.038611237 -0.04504473
0.040545646 -0.04463583 0.007334864 0.010043707 -0.007871299 -0.1716694 -0.068910904 0.030852733
0.15099376 -0.14512807 0.005354594 0.01161608 -0.10529859 -0.019228708 -0.038491074 -0.006189688
-0.09757043 -0.0031438072 0.118605696 0.09798815 0.093423374 0.010022779 0.013695858 0.010062228
-0.073703386 0.07931151 0.05295235 0.03426956 -0.020312026 -0.08207471 0.10192246 -0.019504733
-0.0072426936 -0.00639931 0.030742977 -0.09527049 -0.028769884 0.00024255094 0.0357887 0.06554015
-0.10246995 0.016486175 0.043307204 0.07384139 0.018635754 0.072352394 0.059296202 -0.04634254
0.040516224 0.07165592 0.07604388 0.038842767 -0.06489038 -0.011756256 0.118723884 0.112772815
-0.076212205 0.1476619 0.12224613 -0.10933053 -0.06967267 0.063829884 0.03142512 -0.049022283
0.16722941 0.021871088 -0.049677674 0.07283882 0.03691229 -0.017630037 0.07193458 -0.015479527
-0.059107285 -0.117634095 0.15841025 0.03146754 0.15912046 0.17439175 0.11193124 -0.12969953
0.010130692 0.02190788 0.07739906 0.18026467 0.076272964 0.095596775 -0.015815482 0.15441276
-0.14299275 0.16056925 -0.004420011 -0.0055984226 0.07919659 0.0913415 0.12741764 0.1070065
-0.011485419 0.06321456 0.10017918 0.058050137 0.029778713 0.105132475 -0.10517999 0.09344035
-0.10159497 -0.036113624 0.03572628 -0.05579434 0.02508404 -0.13543119 0.049697638 0.076735824
0.08355796 0.011446322 0.028436102 0.017308606 0.07223579 0.024581922 -0.019497162 -0.13347994
0.035417244 -0.069099665 -0.046457093 0.08253396 -0.030761858 -0.026862096 0.034027368 -0.15287401
-0.014096708 0.07776806 0.015556277 -0.09025996 -0.038754433 0.15258664 0.107135266 0.069787785
-0.011093065 0.050994005 0.0105879335 -0.009477738 0.08347205 -0.17622437 0.035571042 0.113817364
0.015214128 0.14585853 0.16311316 -0.05245137 0.012891458 0.029691162 0.09647319 0.06806726
0.043586638 0.014700921 -0.0010163881 -0.06729765 -0.028135147 0.018733224 0.07611861 -0.08283048
-0.12901609 0.17337042 0.022311859 -0.09072931 0.048675828 0.06936443 0.04162955 0.0939693
-0.031959638 -0.04887945 0.037922665 0.00017630564 0.01203912 0.09295144 0.063570686 -0.044834036
0.18024895 0.01381169 0.064718954 -0.108276434 -0.07154318 -0.028903926 0.13294718 0.1531319
-0.02675231 -0.15337987 0.020343114 0.058895774 0.08030568 -0.02786924 -0.042080168 -0.008488131

2.bias f4 [128]
00000000: 507b 0e3d e47f de3d 7733 8a3d c000 febb
00000010: bf4a db3d 9b9f b83c 5307 983c d123 663d
00000020: 6eb7 903c 266f 383c 3cd2 023e 971f 51bc
00000030: 22c7 2a3d 32a9 7fbd 4e2f 833d 0116 fd3d
00000040: 65f8 043d 2103 0b3c 1b3b 843d 5c27 163d
00000050: d5d1 d83d b3ce ce3d 4190 e83c b2cc d5bc
00000060: 160e ca3d b93f 063d 2ce3 b7bb d4cf 86bd
00000070: 277a 853d 08da 763c f13d 513d b0ca 753d
00000080: d955 033e 7eac 33bc 4158 edbb 3765 f13d
00000090: 32a6 043d 1d03 c23d c541 8dbd 6ef6 8f3d
000000a0: 13f7 bb3d 8959 043e ba9e bdbc be3b e13b
000000b0: 98b3 443c 817a 4e3d 3fca e03d 230c 9f3d
000000c0: e666 983d 9d17 05bd 5530 613d 59bf 9b3d
000000d0: 7a0e 9d3d 3bdc 863d c3d5 893d 1ec9 3fbd
000000e0: 5458 49bd c2e7 0bbd 3e19 233c bb2b 9f3d
000000f0: aad0 323d c447 f03d e6ae 60bc cb5f 48bc
00000100: 496c ea3d bf80 883d 6aed 883d f7f1 c6bc
00000110: 77a1 793d 3d7e 19bd 7cde e83d 1889 c5bc
00000120: 062a df3d 50a0 a33d 5dd3 c3bc b1dd 5939
00000130: 48bd 29bd 2657 b9bc d5c9 fe3c 9d8a 26bd
00000140: 8b95 dd3d 25df 00bc 03f1 803d e34e 98bc
00000150: a9d9 4b3b 22e2 b33d cb70 cd3d 758c f0bc
00000160: 7d35 f03d dad8 343d 39b5 ce3c e0d5 a13d
00000170: aed5 c03c e223 df3d 68fe cd3d 2ca3 eebb
00000180: a993 33bb 5d97 34bc a875 043e 60b6 093e
00000190: 9f20 31bd 8776 9c3d 6965 8ebd 67ab eb3d
000001a0: 9684 ffbb 03fb f4bb dfca 4f3d 4b2c 2dba
000001b0: c17e c03b b63a c63d 7785 983d 7a6b cd39
000001c0: 0518 ac3d b57b ac3a 594a 8bbc 1a3d 723d
000001d0: a561 823d 882f fdbc 1ccc c53d 8cd5 103e
000001e0: c79f 913d 665e 9ebc 5b6a c03c 1bb4 2a3c
000001f0: 5219 23bd 578e 0abd 1e2f 653c 2866 d93d
0.03478557 0.10864237 0.067480974 -0.0077515543 0.10707616 0.022537043 0.01855818 0.0561865
0.017665591 0.011256969 0.1277551 -0.012763879 0.041693814 -0.062417217 0.06405507 0.123577125
0.03246345 0.008484633 0.06456586 0.03665863 0.10586897 0.100980185 0.028389098 -0.026098583
0.09865968 0.032775614 -0.005611798 -0.06582609 0.06517439 0.015066631 0.051084463 0.06000775
0.12825717 -0.010966418 -0.0072431867 0.11786883 0.03238506 0.0947325 -0.0689731 0.070294246
0.09177985 0.1292478 -0.023146976 0.006873577 0.012005709 0.050409798 0.109760754 0.07765987
0.07441501 -0.032493223 0.054977734 0.07604856 0.07668777 0.065849744 0.06730225 -0.04682266
-0.049156502 -0.03415657 0.009954749 0.07772013 0.04365603 0.11732438 -0.013713574 -0.01222987
0.11446435 0.06665181 0.06685908 -0.0242853 0.060945 -0.037473906 0.113705605 -0.024113223
0.10896687 0.079895616 -0.023904497 0.00020777319 -0.04144028 -0.022624563 0.0311021 -0.040659536
0.10819539 -0.007865702 0.06295969 -0.018592304 0.0031105077 0.08783366 0.10031279 -0.02936385
0.11728952 0.04415212 0.025232898 0.079021215 0.02353939 0.10895516 0.1005829 -0.007282635
-0.0027401245 -0.011022416 0.12935507 0.13448477 -0.043244 0.07639795 -0.06952936 0.11507302
-0.007797788 -0.007476212 0.050730582 -0.00066060264 0.0058744852 0.09679167 0.074473314 0.00039180723
0.08403019 0.0013159426 -0.017003225 0.059140302 0.063662805 -0.030906454 0.096580714 0.14143962
0.07110553 -0.019332122 0.023488214 0.010418917 -0.03981907 -0.033827152 0.013988284 0.10615188

4.weight f4 [68, 128]
00000000: 8368 9dbd 440f b3bd 8687 ce3d 8fa7 ce3d
00000010: 503c cd3d b98c 603c bbb6 bdbd aa99 0e3d
00000020: 322e 073c 326d cc3d a57d aabd 6433 e2bd
00000030: 77fa f8bc f0db d93d d678 e8bd 70fd 2f3d
00000040: e7e9 a63c cd24 5c3d 9a10 10be 49db 803d
00000050: 3307 0bbd 0511 1b3e 59c2 27bd 546f cabc
00000060: 07a8 6dbd a3fd 00be 32ed fa3c dfb3 9dbd
00000070: 00fe 083e 9351 86bb ac4c 68bc 2350 d8bc
00000080: 4c7e 893d 1427 a13a 3ab8 613d 915a 003d
00000090: 6aad 99bd 4a2e c13a f5ad 44bd df4d ef3d
000000a0: 6220 21bd c116 283d 32b4 063e c430 4dbb
000000b0: 1671 083d 4ee5 debd 9f12 30bc bd7c 4bbc
000000c0: b184 80bc 74ec c63d 756c c7bb e855 b3bd
000000d0: b949 88bc c414 e6bc b8f6 bd3d ee39 54ba
000000e0: ca04 07be f4ac 2d3d 9828 03bc e731 abbc
000000f0: 8d45 ac3d eaab f5bd d49a 8cbd ad73 e5b9
00000100: 7f43 f73c 632a c4bd bf54 c2bd 7da3 9b3d
00000110: c7f0 9fbd 25eb 37bd fb38 723d 5344 3ebd
00000120: fd8b d63c 9ca5 af3d 4688 88bd a99b 513d
00000130: 00f8 c9bc 3ac1 0e3c a246 9bbd 6a0a 91bc
00000140: d772 b23a 2e94 bebc dd2b c53b 8080 933d
00000150: 6443 b4bd 3eda d83c 02e2 3d3d 2aec 1e3d
00000160: e930 64bd 5fb6 34bc fa99 1ebc c8ba 8e3d
00000170: b0fe e439 be3c 2c3e 8382 4d3d e47d df3d
00000180: f8db 6cbd a4cd ab3d 577b 14be 47f8 f2bc
00000190: c960 9abd 3d10 a83d 3c3b adbc 6203 a9bd
000001a0: 102f fc3c 7ed9 23bd df46 2fbd c63f 82bd
000001b0: 149c f93d 42d5 6a3d 6709 2fbc 9f0a e73d
000001c0: bb6b 5ebd 5d6b 6b3d bc0c d0bd 910b 88bb
000001d0: fd3b 58bd b460 f93d 03e3 b4bd 779f c9bd
000001e0: 2a37 94bd 260f 78bd 6f09 893c ab47 1d3c
000001f0: a9d9 073e 691b ffba 072c e73d 7b5f 40bc
00000200: ad08 c1ba 215f e9bd d6fc f43d a543 933d
00000210: 28a3 643d f9d5 013d 7792 493d 3ae9 e2bd
00000220: d846 dcb9 bbcf 9bbc 2c9d 58bd 81ac 973d
00000230: 70b0 1fbd 392f dbbd a9d5 d4bb 3420 cc3d
00000240: b517 0b3e bcef 4f3e 7f98 1fbd 156b c2bd
00000250: f6ee 4f3c 8425 dcbc 0b62 8abc b7fe 80bd
00000260: 2056 99bd 3dd3 05be 04da bebb c756 debc
00000270: f0ab 923d 647b 80bd b6d5 7a3d 0adc 3f3b
00000280: c325 89bd 0249 8c3c 5edc b8bc dbd1 b83d
00000290: 7ec8 d03c 629b 303c 7b78 5d3d c689 17bd
000002a0: ddff 9dbd a002 f4bd d0dd 723c 8db0 0039
000002b0: 5b8f 983d 7df1 8bbd 2b28 1dbe 6262 debd
000002c0: ac2d 6a3b e631 3c3d fc73 9a3d a8f7 da3c
000002d0: b898 863d f66a 60bd 80e5 09be 994c b53c
000002e0: 8fc5 d1bc 1862 b8ba 9576 623d 941d 1637
000002f0: 29a1 323d 2f8b 083c 3939 1fbc b416 8bbd
00000300: 1daa d3bd 57a9 1cbd d07b 513d 17b2 bf3d
00000310: 0d20 2b3d 46cd 1d3d 5719 f0bc 6f4c a93d
00000320: ce67 5f3d 71ec a53d 4394 893d 16c5 9e3c
00000330: 6d3d 9b3d fcc5 463d 92bb b5bd 4a21 21be
00000340: 0714 d6bd d2d2 6b3a 8829 23be 1a20 8cbd
00000350: 5bfb 803d 56ef d7bd aa28 02be 975b 6b3c
00000360: cd4a 663d ac4b a43d 92fd e5bd e59a 2bbe
00000370: 6c76 0fbb 5037 903c 85f7 11be ae48 37bd
00000380: f553 303b 49bd ad3d 5e6b 4d3d 9446 fabc
00000390: 3f29 d63d d8f0 3fbd efa9 9bba 6e1a c13d
000003a0: 150b 6c3d c834 123d 1e1d dd3b 6899 8cbc
000003b0: 64b5 c53d 2a74 9c3c f29a 69bc 3f10 22bd
000003c0: 5885 be3c ad90 db3c 2098 b8bc dcb9 163d
000003d0: 1b9b 77bd 7c1d 3b3e f412 b63d 3723 923d
000003e0: e304 86bc e4a9 1abc 19a4 0d3e d344 1abd
000003f0: 5ab8 35bc dfbd 173e 4cac 0f3a 613f 813d
-0.0768595 -0.08743146 0.10084443 0.10090553 0.10021269 0.013705426 -0.09263369 0.034814514
0.00825076 0.09981765 -0.08324746 -0.11044958 -0.030392868 0.10637653 -0.113511726 0.042966306
0.020375205 0.053746033 -0.14068833 0.06291825 -0.033942413 0.15143211 -0.04095683 -0.024711289
-0.05802157 -0.12596755 0.030630682 -0.07700323 0.13378143 -0.00409908 -0.014178436 -0.0264054
0.06713542 0.0012294971 0.055107333 0.03133637 -0.07503779 0.0014738527 -0.04801746 0.116847746
-0.039337523 0.041037325 0.13154677 -0.0031309584 0.033310972 -0.1088358 -0.010746627 -0.012419877
-0.015688272 0.097130686 -0.006085927 -0.0875662 -0.016636716 -0.028086074 0.092755735 -0.00080957904
-0.1318542 0.04240127 -0.008005284 -0.020897819 0.08411703 -0.11995681 -0.068654686 -0.0004376447
0.030183552 -0.09578397 -0.0948882 0.07599542 -0.078095965 -0.044901986 0.059136372 -0.046451878
0.026189798 0.08576509 -0.06666617 0.05117384 -0.024654388 0.008713061 -0.075818315 -0.017705161
0.0013614547 -0.023264017 0.006017192 0.07202244 -0.08801916 0.026471253 0.046358116 0.038799442
-0.055710707 -0.011029809 -0.009680266 0.069692194 0.00043677306 0.16820046 0.050173294 0.109126836
-0.057826966 0.08388832 -0.14500175 -0.029659403 -0.075379916 0.08206222 -0.02114641 -0.08252598
0.03078416 -0.04000234 -0.042792197 -0.0635982 0.12187973 0.057332285 -0.010683394 0.11281323
-0.05430196 0.057475436 -0.10158679 -0.0041517694 -0.052791584 0.12176648 -0.088323615 -0.09844869
-0.07237084 -0.06056132 0.016728131 0.0095996065 0.13266625 -0.0019463125 0.112876944 -0.011741514
-0.0014727317 -0.113950975 0.11962287 0.071906365 0.05581966 0.0316982 0.049211945 -0.11079641
-0.00042014453 -0.019019952 -0.052884266 0.074059494 -0.038986623 -0.107023664 -0.006495197 0.0996708
0.13583262 0.20306295 -0.03896379 -0.094930805 0.01269125 -0.026873358 -0.016892454 -0.06298583
-0.0748713 -0.13068862 -0.0058243293 -0.027140988 0.07161701 -0.06273535 0.061238967 0.002927544
-0.066966556 0.017124657 -0.022566017 0.09024402 0.025486227 0.010779234 0.054069977 -0.036996625
-0.07714818 -0.11914563 0.014823392 0.00012272802 0.07449218 -0.068331696 -0.15347354 -0.10858609
0.003573279 0.045946024 0.075416535 0.02672942 0.065720975 -0.054789506 -0.13466454 0.022131251
-0.025606899 -0.001406732 0.05528887 8.947583e-06 0.043610726 0.008333965 -0.009718233 -0.0679144
-0.10335181 -0.038247433 0.051143467 0.0936014 0.041778613 0.038525842 -0.029308958 0.08266532
0.054542355 0.08101738 0.06717732 0.019381087 0.075800754 0.048528656 -0.08873667 -0.15735355
-0.10453039 0.0008995953 -0.15933812 -0.068420604 0.06297942 -0.105436966 -0.12710825 0.014365098
0.05622368 0.08022246 -0.11230005 -0.16758306 -0.0021890653 0.0176045 -0.14254577 -0.044747047
0.002690551 0.08483369 0.05015122 -0.030551232 0.10457086 -0.046860546 -0.0011876206 0.09428869
0.057627756 0.035694867 0.006747856 -0.017162994 0.09653738 0.01909836 -0.014258133 -0.039566275
0.023256943 0.026802385 -0.022533476 0.036798343 -0.060450654 0.18272966 0.08890334 0.07135623
-0.016359752 -0.009439919 0.1383213 -0.037663292 -0.011091316 0.14818524 0.00054806913 0.06310917

4.bias f4 [68]
00000000: 3bee 78bc 91ec 02bc 8d18 7e3d 1efe 4d3c
00000010: 96a2 47bd 9ccc 2f3d c10c 653d e2ca 80bc
00000020: 96df 183d ccd8 02bd 532a 2bbd b870 80bd
00000030: 9cb4 a6bc 8e48 803d 7588 90bc 3d84 813c
00000040: 1fec 2e3d d1e9 863d 367a a9bd 5839 553d
00000050: 4aaf cebd 7267 553d 9e6c d13b 3695 0a3d
00000060: f3b2 2c3d ca97 8d3d 320a 6dbb 9d34 e83d
00000070: 907d ae3d 560d 683d 7c8d a63c 8517 febc
00000080: 5525 9fbd 5fb5 a13d d59b a63c 4dec a5bb
00000090: 306e 363d cee3 6bbd b315 6f3d f153 f53c
000000a0: 0c68 0fbd 557b 1d3d d911 b43d f75e 183c
000000b0: eaa4 54bb fe27 d8bc 4825 bdbd 3091 70bc
000000c0: 0a28 373d bbe0 12bd 0eda 42bb 3555 9fbc
000000d0: e3a4 d33c dc00 953c 9583 4fbd c6e9 553d
000000e0: 8c8e 0cbd c3fa cabc 43e9 dcbd d337 ba3c
000000f0: 7b57 6e3d 6fc5 f93c 9d74 8ebd b6bb d73c
00000100: f046 e6bc 8116 9e3d 1464 273d ce5b e6bc
-0.015193517 -0.007990972 0.062035132 0.012572793 -0.04873904 0.04291974 0.055920366 -0.015721742
0.037322603 -0.031945035 -0.04178841 -0.062714994 -0.020349793 0.06263839 -0.017643193 0.015810126
0.04270565 0.06587566 -0.08275263 0.05205664 -0.100920275 0.052100606 0.006391122 0.033833705
0.042162847 0.06913717 -0.0036169407 0.1133816 0.08520043 0.056653343 0.020331137 -0.031017074
-0.077707924 0.07895922 0.020337978 -0.0050635696 0.044538677 -0.0575903 0.058370303 0.029947253
-0.035011336 0.038447697 0.08792467 0.009299985 -0.003244693 -0.026386257 -0.092356265 -0.014683053
0.04471592 -0.03585885 -0.0029732022 -0.01944981 0.02583546 0.018188886 -0.050662596 0.052224897
-0.03431563 -0.024777776 -0.10786679 0.022731697 0.058188897 0.030489651 -0.06955836 0.026334625
-0.028109998 0.07719136 0.040866926 -0.028119948
